feedforwardnet.pth (torch, 815945 bytes, 4 tensors)

dense_layers.0.weight f4 [256, 784]
00000000: 5521 8ebc aacc 01bc d692 f53c 7ad8 fcbc
00000010: 2aa8 42bc 9057 c8bc ec6c b7bc 8008 223a
00000020: deaa 9a3c 0c6a d43c 4495 503c 4c24 863c
00000030: 1f75 3abc 3436 f7bc 2058 4ebc bb1f 0bbd
00000040: 8b37 0abd 58e0 0abc 0070 bd3a 1a03 b8bc
00000050: 2e8a 6bbc de23 ea3c d948 023d 9c4a 0bbd
00000060: 48a8 a43b 4594 05bd b094 b2bc 43fa e3bc
00000070: ab62 07bd e8c1 013c 001a d938 b69f dc3c
00000080: 437e d33c 1b13 a8bc d4eb 2bbd 9c04 1bbd
00000090: e443 f23c 390d 383b 6570 803b a6da 76bd
000000a0: 7ec6 f5bd 6547 1ebd 45ee b2bd 95ea 0ebe
000000b0: 185b 263b a278 c23d acda d63d ab4b 233d
000000c0: 719a 6abc d9ef 43bb 4536 17bb e09e 15bd
000000d0: b072 0abb b474 01bd ee21 d2bc 4ef7 9f3c
000000e0: 8875 903b 0840 ecbc 6ebe c8bc 680f 17be
000000f0: 9464 dcbd 77b1 d73c da5a a23c 5abe aabc
00000100: 3da1 c53d ad46 023e 9b8f c13d 0c30 0f3e
00000110: 2679 343d 850e 2cbd dae8 813c a89e 62b9
00000120: 3b98 9ebc 85fc 6f3d 113e 1bbc a5f1 9dbc
00000130: 6d34 8a3b 1dae 0a3c 2e39 6d3d 6dd2 4bbd
00000140: eae3 a5bd 2b93 c6bd 00ab 2dbb fc3d 36bc
00000150: 063b 10bd e6c1 cc3c a1d5 d2bd 29ec dcbd
00000160: 5ee1 4f3d 3f59 dd3d 2628 90bc a91e 81bc
00000170: d14e cfbd 037f 3dbd e5e3 b03d 5a48 653d
00000180: aa5e 8fbd f4c8 92bc 9cc7 67bd 504d 97bd
00000190: 8267 cfbd 7d57 c7bd 7bb7 e93c 8b29 80bd
000001a0: ab13 dcbd 9c73 033e 3977 af3d 6c6e cb3d
000001b0: 1ce0 d13d 8ef4 40bd 0c3c 8a3b faa8 a83c
000001c0: c3a8 0d3d e622 01bd 67c6 eebd 518a 8fbd
000001d0: ea96 233d 4c60 b83c 3455 ccbb 6362 7b3d
000001e0: f7ef 69bc 471c afbc d010 39bb 8a31 85bc
000001f0: 89d0 103b 682a 0dbd 3540 4ebd 324d 1bbe
00000200: f785 b4bd f9df 37bc 4fb2 35bd 74ef abbb
00000210: f736 d13c 68e8 a13c 2f87 8f3c 8ad9 813d
00000220: 5afb 24bc 463d 64bd 375b 90bd 564d 41bc
00000230: 9e3e ea3c 4629 e03c d7a2 2bbd 366b c4ba
00000240: 7d57 b73d cf96 7338 91a3 26bc defc 183d
00000250: e3ff 653c 188c 703b 6166 743d 92d9 c13d
00000260: 7338 e63d ec78 cc3c 6dc9 a33b efd9 b33c
00000270: a087 cd3c 56df 823d 3900 a03c 4073 de3c
00000280: 41ae 953d 0011 ea39 6478 17bd 2de6 e23c
00000290: def5 3b3d 84dc d33d 640f 9f3c 8a3d 083e
000002a0: e20b cd3c 4c1c 7fbd 2939 a8bd b075 08be
000002b0: 6c27 f83c 426e 0cbd 0403 87bd 7365 623c
000002c0: df22 313d 8f82 933c f77b 313d 57fa 363c
000002d0: 5a9e 463d 78e9 7b3d 7245 d33d 81f3 323e
000002e0: d5b5 8d3d edd4 873d 093e 90bc dbf0 833c
000002f0: 7cfe 3dbc 936b 96bd 0987 a3bd b6fd 23bd
00000300: c70a 6cbd 8d33 863d 7089 7f3b 2846 db3c
00000310: a529 7f3c 16d6 bdbd 4505 a2bc ca15 2ebe
00000320: ec22 08bc e0df 9abd 8df0 efbc 8475 2ebc
00000330: d008 833d 8532 1b3b dac6 ffbb f4ad a93c
00000340: dd4d a1bc be8a 1b3d 69ec c13d 6d5c de3d
00000350: acc7 b1bb da78 4abc fa86 d3bd df32 7abd
00000360: e138 17bd 681c e93c 9a8e fcbc 49cb aabd
00000370: 4cf8 103d 866c 863d 4c52 993c adc7 34bd
00000380: 9d10 52bd 42ee 6ebd 9576 12bd 2159 e3bd
00000390: 0097 44bd af1b 283d c382 613d 9f21 90bd
000003a0: 5153 6bbc ec5a febb e852 8dbc 895b 903c
000003b0: 389a 6ebd 22be 113d 351f 57bd 2067 d6bc
000003c0: f35c 78bd e408 aabd 5c41 bebd 64fb 4cbd
000003d0: 54ee b7bd cdd0 10bd 0afa b2bd 8624 cbbd
000003e0: 8500 4dbd 514c 783d 4cd6 0e3d a5fa 8dbd
000003f0: a254 57bc a9be cebd d30e 24bd 00d2 25bd
-0.017349878 -0.007922331 0.029977243 -0.030864943 -0.011880914 -0.024455816 -0.022390805 0.0006181076
0.018880304 0.025929473 0.0127309 0.01637473 -0.011380463 -0.030177213 -0.012594253 -0.033965807
-0.033744376 -0.008476339 0.0014452934 -0.022462416 -0.014376206 0.028581556 0.031807754 -0.0340067
0.0050249435 -0.032612104 -0.021799415 -0.027829295 -0.03305308 0.007919766 0.00010352209 0.026931625
0.025817042 -0.020516923 -0.04197295 -0.037846193 0.029573388 0.0028084053 0.0039196485 -0.060267113
-0.1200075 -0.038642306 -0.087368526 -0.13956673 0.0025383886 0.09495665 0.10490927 0.039867084
-0.014319048 -0.00298976 -0.0023073119 -0.036528468 -0.0021125488 -0.031605437 -0.025650945 0.019527104
0.004408542 -0.028839126 -0.024504866 -0.14751971 -0.10761371 0.026329739 0.019818712 -0.02084272
0.096498944 0.12722273 0.09451219 0.13983172 0.04406085 -0.042006034 0.015858103 -0.00021612144
-0.019359699 0.05859043 -0.009475247 -0.019280264 0.0042176754 0.008464363 0.05791586 -0.049761225
-0.08100112 -0.09696039 -0.002649963 -0.011123177 -0.03521254 0.024994802 -0.10294653 -0.107872315
0.050752036 0.10808038 -0.01759727 -0.01576169 -0.10122455 -0.046263706 0.086372174 0.055977203
-0.070004776 -0.017918088 -0.056586847 -0.07387793 -0.101271644 -0.09733484 0.028529873 -0.06257924
-0.10745939 0.1283707 0.08567662 0.09933171 0.102478236 -0.047108226 0.004218584 0.020588387
0.03458477 -0.031527422 -0.11658936 -0.07008804 0.039938845 0.022506855 -0.006235743 0.061373126
-0.0142784035 -0.021375788 -0.002823878 -0.016258974 0.0022096953 -0.03446427 -0.0503542 -0.15166166
-0.08814614 -0.011222833 -0.0443595 -0.005247051 0.025538905 0.01976414 0.017520515 0.063403204
-0.0100696925 -0.055722497 -0.07048648 -0.0117982235 0.028594311 0.02736343 -0.041903343 -0.0014985565
0.08952234 5.8076166e-05 -0.010170833 0.037350528 0.014038059 0.0036704596 0.05966795 0.09465326
0.112412356 0.024960004 0.004998377 0.021954505 0.025089085 0.06390254 0.019531356 0.027154565
0.07308627 0.00044644624 -0.036980048 0.027697647 0.045888774 0.103447944 0.019416519 0.13304725
0.02503008 -0.062282845 -0.082140274 -0.13326144 0.030292235 -0.034284838 -0.06592372 0.013818133
0.043246146 0.018006591 0.043331113 0.011168084 0.04849086 0.06150195 0.1031598 0.17475702
0.06919447 0.06632409 -0.017607706 0.01610606 -0.011596318 -0.07344737 -0.0798474 -0.04003688
-0.057627466 0.06552801 0.0038991831 0.026766852 0.015573894 -0.09269349 -0.019777903 -0.170005
-0.008309107 -0.07562232 -0.029289508 -0.010648135 0.06398165 0.0023681235 -0.0078056874 0.02071283
-0.019690448 0.03797411 0.0946892 0.108574726 -0.005425414 -0.012357915 -0.10328479 -0.06108367
-0.03691948 0.028455928 -0.030829716 -0.08339555 0.035393044 0.06563668 0.018716 -0.04413574
-0.051285375 -0.05833269 -0.03575762 -0.11100984 -0.047995567 0.041042026 0.055056345 -0.07037663
-0.014363126 -0.0077623036 -0.017251447 0.017621772 -0.058252543 0.035581715 -0.052519996 -0.02617222
-0.06063552 -0.08302477 -0.0928981 -0.050044432 -0.08981004 -0.035355378 -0.087390974 -0.09919076
-0.050049324 0.060619656 0.03487234 -0.06932572 -0.013142737 -0.10094959 -0.0400532 -0.040483475

dense_layers.0.bias f4 [256]
00000000: 63ef 833d c53c 623c 1af6 b43d e3ca 593c
00000010: 21c6 79bc 346b 2c3d 9b1b 2d3d 9d9f d63d
00000020: 853e 26bd 2472 333c 80a9 4fbd ae2c 843e
00000030: 9f65 8c3d 8f56 613d c7f8 593b b226 533d
00000040: eab5 b9bd e29f 55bc 3847 2c3e b3f7 153e
00000050: 59b8 7abd c157 063d dc45 d6bd c2c3 eb3c
00000060: 00d9 763d defa 723d a086 10bd 5fb6 6e3b
00000070: e0eb 883d b1fb 153e 1eae b1bd 9479 183d
00000080: ca1d 01bd 1872 e43d 0cb0 8cbb bd98 5b3b
00000090: f409 033e c442 833d b9c5 353e e9ab 82bb
000000a0: 80c9 a9bd f807 f5bc b2ff a8bd 57c7 68bc
000000b0: 043a a23c 7124 a03d d930 023d a7de 2c3d
000000c0: c6df ab3c 44e5 c5bc b827 a73d 0cab c73c
000000d0: 8251 db3d f456 74bb 9e1b ed3c b732 233c
000000e0: ccad 303d bfb9 e13d 3160 34bd 9380 803c
000000f0: 5c81 abbd 6fb7 493b 491a 263e f29a 8d3d
00000100: 92f6 9bbd 93c7 2a3e 0f01 e23c 4a42 6e3d
00000110: fa1b 0e3e 461c 21bd 4385 94bd acd9 f93c
00000120: 0fe5 1dbd fda7 0bbb 7b09 b63c d5c9 0f3e
00000130: 7339 b33d 253a a23d 495c c4bd fbcb 093e
00000140: a9c9 d5bc becf 86bb 49e4 c43b 9261 773d
00000150: 2b8b 633b 5302 5c3e 4da6 953c f41e 72bd
00000160: 9fa0 66bb ef57 e4bc aa31 bbbd c541 8abd
00000170: 33d2 a83d c0c1 c53d 1287 51bc fb5a 88bd
00000180: a6b9 db3d 8d06 4dbd 4c21 c53d 617d 8e3c
00000190: c595 4abd c134 153e e22c ffbc ff09 873d
000001a0: 898e 283d 8afa ff3d 8a5f babc b7f6 2ebd
000001b0: 70a3 403e 3a2d bcbd e6e5 973d 8484 69bd
000001c0: 364b 813d 2b2d 9e3c 37a7 00bd d742 313d
000001d0: f3f1 063d 3583 1a3e beb2 2e3d 9111 09bd
000001e0: c787 9dbc 3ae7 6b3d 0477 ea3d 3419 353e
000001f0: 5c62 c7bc 5208 c73d 6c1d f4bc 4419 3cbb
00000200: f502 0f3c 877c ad3d 439a 933d f7f3 fc3c
00000210: 6e14 40bd 5474 3a3d 19a8 27bd c093 8fbc
00000220: 276a 28bd 0a2c 073e 8c29 0dbe 99e5 93bd
00000230: 48b6 513d 901b b93d 6041 d43d 0122 9a3d
00000240: 7cc4 ce3c 3ee1 8c3d 27f4 1e3e 95fb 21bd
00000250: 1f8c c73b a2d4 2839 94e5 013c 4588 223d
00000260: d043 c43d 58df fdbc 5172 7bbd 86a2 c23d
00000270: 6c83 e2bd 53dc 883d ad0e 2f3d d8c2 913d
00000280: 3620 323d 6b50 d83d 32da 313d e33a 123e
00000290: c0bf 27bc 59f2 a4bc 8105 153d e565 573e
000002a0: 8c0d 26bd b069 8ebd fe68 fe3c 0779 afbd
000002b0: 1976 4ebc 86eb 08bc edd7 1fbd a035 663d
000002c0: 71ba 60bd a794 01bd edcb 0a3d 62c7 9a3d
000002d0: 2d55 803d 4d9f 1b3c 5ff7 803c d129 443e
000002e0: 1236 b03a c013 063e 7a99 523e 1df4 5c3e
000002f0: fa48 a8bc c461 00bd a6e1 e2bd ba01 1d3c
00000300: 54f4 96bd bc6a 873d 5d0d 3b3b 9da4 c63d
00000310: 3a78 c63c c484 d03c 74a7 b6bd 3b21 d1bc
00000320: bc5a 743c 5881 d5bb af56 be3d b210 363d
00000330: be69 16bd 3e4d a3bd 4070 f1bd ebd9 dbbd
00000340: 6005 d13c 5767 72bd a6d9 25bd 7e58 6b3d
00000350: fda9 2ebc 1f0d 613c e43b ab3b dc7a 41bd
00000360: 97e8 0a3e 59d3 c3bc 2573 fb3c cdae 253c
00000370: 62cf 0839 4b80 1a3b 3a88 b7bc c2b5 823d
00000380: 0366 83bd dfc2 a6bd a260 0fbb 2f23 ad3d
00000390: b026 25bd 1669 bdbc 4796 f93d 80ef ebbc
000003a0: ab28 a03d 633d b93c 7291 d93b 5a69 df3c
000003b0: d310 823c d303 0e3d d2d7 463e a144 c2bc
000003c0: 85fa 9bbb e331 873d 0d83 cdbc 6455 e3bc
000003d0: 6059 f93d c6ee b63d ea52 57bd a975 a93d
000003e0: 4ce8 efbc ae36 8e3d 1a0d f93c f0b7 9d3c
000003f0: f229 b83d c1d8 6f3d 3896 6cbd 3d02 4ebd
0.06442144 0.013808434 0.08836003 0.013293001 -0.0152449915 0.042094424 0.042262655 0.104796626
-0.040586967 0.010952506 -0.050698757 0.25815338 0.0685532 0.05501419 0.0033259855 0.051550575
-0.090679005 -0.013038607 0.16824043 0.14645271 -0.061210964 0.032798532 -0.10462543 0.028779868
0.06026554 0.059321277 -0.03528464 0.003642462 0.066856146 0.14646794 -0.08675788 0.03722532
-0.03152255 0.11154574 -0.0042934474 0.0033507787 0.12796766 0.06409219 0.17751206 -0.0039877784
-0.08290386 -0.029911026 -0.08251895 -0.014207683 0.019803055 0.07819451 0.031784866 0.042204525
0.020980727 -0.024157174 0.081618726 0.024373554 0.10708906 -0.0037283273 0.028943833 0.009960822
0.043134496 0.110217564 -0.044037048 0.015686309 -0.08374283 0.00307795 0.16220964 0.06914319
-0.07615389 0.16677694 0.027588395 0.058168687 0.1387786 -0.039333604 -0.0725198 0.030499302
-0.038548525 -0.0021309846 0.022221318 0.14041837 0.08751192 0.079212464 -0.095879145 0.13456719
-0.026097136 -0.0041141203 0.006008659 0.060395785 0.0034720402 0.21485262 0.018267775 -0.05911155
-0.0035190952 -0.027873961 -0.09140332 -0.06750826 0.08243217 0.096560955 -0.012788551 -0.06657978
0.10728769 -0.050055075 0.096254915 0.01739377 -0.049459238 0.14570905 -0.031149331 0.065937035
0.041151557 0.124989584 -0.022750635 -0.042715754 0.18812346 -0.09188314 0.074168965 -0.057011142
0.063131735 0.019308647 -0.03140947 0.043276634 0.032945585 0.15089114 0.04265093 -0.03346402
-0.019229783 0.05759356 0.11448482 0.17685395 -0.024338894 0.09718384 -0.029799186 -0.0028701583
0.008728732 0.08471017 0.072071575 0.03087805 -0.046894483 0.045521095 -0.040931795 -0.017526507
-0.04111686 0.13200393 -0.1378538 -0.07221527 0.051199228 0.0903846 0.10364032 0.07526017
0.025240175 0.06878899 0.15522824 -0.039546568 0.006089702 0.0001610094 0.007928271 0.039680738
0.09583247 -0.030990288 -0.061388317 0.09503655 -0.11060223 0.066826485 0.042738605 0.071172416
0.04348775 0.105622135 0.043420978 0.14280276 -0.010238588 -0.020135092 0.036382202 0.21034963
-0.040540263 -0.06953752 0.031055924 -0.08568006 -0.012601399 -0.008356934 -0.039024282 0.056203485
-0.054865304 -0.031635907 0.033885885 0.075575605 0.06266246 0.0094984295 0.015742956 0.19156577
0.0013443849 0.13093472 0.20566359 0.21577497 -0.02054261 -0.031343237 -0.11078195 0.009582931
-0.07370821 0.06612155 0.00285419 0.09699366 0.02422725 0.025453933 -0.08918658 -0.02552854
0.014914211 -0.006515663 0.09293877 0.044449516 -0.036721937 -0.07973717 -0.11788988 -0.10734924
0.025515258 -0.059180584 -0.04049077 0.05745744 -0.010660646 0.0137360385 0.0052256454 -0.04723631
0.13565288 -0.02390449 0.030694554 0.010112477 0.00013047227 0.0023575004 -0.022403825 0.06382324
-0.064159416 -0.081426375 -0.0021877666 0.08453976 -0.0403201 -0.023121398 0.12186866 -0.028800726
0.07820257 0.02261228 0.006639653 0.027271915 0.015877163 0.034671616 0.19418266 -0.023714365
-0.004760089 0.06601312 -0.025086904 -0.027750678 0.1217525 0.08932261 -0.052569307 0.08274395
-0.029285572 0.06944023 0.030401755 0.019252747 0.089923754 0.058556322 -0.057760447 -0.050295103

dense_layers.2.weight f4 [10, 256]
00000000: fb32 eabd 12c0 f73d 20fc c23c aac3 0a3d
00000010: 4cd6 5ebc 83a6 df3d 3dc5 723d 1c85 223e
00000020: 59dc d63d f669 933d 9b92 0d3d 0377 57be
00000030: 0cb0 62be 9dc9 f1be 7658 07bd 7eee 5bbd
00000040: 32e8 9f3d 6358 823d fd76 debe 169b 783e
00000050: 9098 d9bb 9a33 23ba d8f8 a93d a17e f13c
00000060: 2afb 34be 8e1d d03d 5cfd 8abb 1bad b23c
00000070: 9b0d 0c3e 9bc6 01be 7827 4abb e168 dc3d
00000080: 81ae fd3c 3fd5 0a3e 2423 a13c d98d f4bb
00000090: 1bfd 0bbe 3f61 6abe 71cc bdbd 5421 15bd
000000a0: 66f3 dfbd 3009 3b3d 49f5 523e c9e3 7a3d
000000b0: 594a 5fbd 0419 893d 14df 0cbe 5ed8 abbe
000000c0: 0b9d aa3d 36d9 e93d 04c3 45be 7488 eb3d
000000d0: ee0e 163e 06d4 1cbe 2864 70be 4a1d a0be
000000e0: 89c6 19bf 1fb5 f8bd a7a6 a9bd b92f cc3d
000000f0: 21f5 733d 93ec 8ebe 90a9 ae3d ef41 973e
00000100: e13b 91bd 66f0 893e 9613 f1bb 43eb c9bd
00000110: 0afa d73d 1c01 b5be 330b 8c3d 3729 d43d
00000120: b6c9 943b 691d 173e 9c18 a4bc d3a2 d7be
00000130: 5289 0d3d 0d5a e13d 77b5 463d 64aa f3bd
00000140: f928 213e 0223 f33c 5180 89be 7345 993d
00000150: 8dec fb3c ca5c 4fbe 4688 483d 5e9c 123e
00000160: 5885 413e f957 d53d 4f8e 08be e7aa 1d3e
00000170: e8d2 913d be3f 2c3d c3f8 1b3d cb85 e0be
00000180: 16a4 7abe 00d9 3e3d 4d70 b0bb 991a 2cbe
00000190: 7f43 9bbc 7919 2c3e 9cce 6cbe 98d4 32be
000001a0: 42f0 8ebe d5bd 903d 5e43 5a3d 0c60 88bd
000001b0: c2cc 16be a2ee 90be 94fe b7be b42a 0fbd
000001c0: 8772 283e 442a 2a3e c5fe 723d f558 5bbd
000001d0: 83c9 2c3e 8106 d23c 52df 15be 8b6a 27be
000001e0: d327 a53d 131f 8ebc 5903 60be 8365 e93d
000001f0: 7147 c83d 1fd6 fdbe fbc0 2a3c 3386 7fbd
00000200: 9b28 c2bc b91c fd3c 7013 843d e4da efbd
00000210: 3b6f 1a3e ee95 ee3d 5172 a23d 1819 d4be
00000220: 36ac 943c 9fe8 a0be ef6d 03be 18c0 89bd
00000230: bc19 6cbe a7c7 6b3d 4abd 5e3d fa2d dd3d
00000240: 87cd 033d e9bd 29bd 8030 21be 6d23 2e3e
00000250: 474f bbbd b282 49be 660e ce3d c7c1 9dbe
00000260: b055 2cbf 6fbc ea3d 56bd 57bd d448 99be
00000270: 6228 39be b2e2 43be 8b92 adbe 5d17 7f3d
00000280: e4fe 003e f493 8a3d b4d2 e9bd 9381 51be
00000290: 8c97 4f3d fb63 793d 1904 b53c 6904 4ebe
000002a0: dc05 ac3d 5241 44be c82a bbbc 6336 96bd
000002b0: 8452 5abd f626 f1bb bab6 95be 2a6b 433e
000002c0: 1dcf ecbd 0839 84be 0890 e03d 9c9f a7be
000002d0: 6948 a1be e8d6 dbbe ecc5 ccbd 8971 a7be
000002e0: 38cd b8bc 06f5 ddbd b239 d9be 6158 71be
000002f0: 30f8 673b e6f6 dcbe 75e4 20be b2d6 89be
00000300: 8bd3 a13d 6b32 49be cc0e 263d bdc8 063e
00000310: a946 75be b368 e3bd ac46 3f3d 53d8 a03d
00000320: ae32 6dbe de57 863d ae6a 14be 7623 b33d
00000330: 718d 283e 9676 fd3d 578d 883d ed61 683d
00000340: 10b4 043e cf12 fd3d 0393 563d 94f3 0b3e
00000350: bdd6 63be 58e0 44bc 0523 003e c4ef bf3b
00000360: c5bf de3d 6e17 68bd 224e 8dbe a98a b2be
00000370: f7ea aebc d524 7cbd b6a7 a23d 819c 033e
00000380: dfe9 6ebd 1d22 9ebe 3207 d5bc 647c b8bd
00000390: 8e96 c3bc f3a7 75be 5d2e 2d3e 2ac4 d33d
000003a0: 57e0 b93e dfca 1cbe 166b 1a3e 91bf 33be
000003b0: 607f a5be 13c3 8c3d d872 9fbe f673 fabc
000003c0: 4f60 df3d e04c 413d 402b 1f3e 92b7 7e3d
000003d0: 423a 0f3e 687f b0bd a4d3 6dbd 0a3e 87bd
000003e0: f4eb 88be 98cd b9bd 5a21 283e 3ecd da3d
000003f0: bfa8 bbbd 24a0 353e 0343 a5bd 1172 c93d
-0.11435505 0.120971814 0.023801863 0.033878006 -0.013600897 0.109204315 0.059270132 0.1587109
0.10491247 0.07197945 0.034563642 -0.21041493 -0.22137469 -0.4722413 -0.033043347 -0.05369424
0.078079596 0.06364515 -0.43450156 0.2427791 -0.0066405013 -0.0006225646 0.08299416 0.029479327
-0.17673936 0.10161887 -0.0042416286 0.021811059 0.13677065 -0.12673418 -0.003084628 0.107621916
0.030966999 0.1355791 0.019670077 -0.0074631986 -0.13670771 -0.22888659 -0.0926751 -0.036408737
-0.109350964 0.04566306 0.20601381 0.06125239 -0.054514263 0.066942245 -0.13756973 -0.33563513
0.08330735 0.11418383 -0.19312674 0.11500636 0.14654133 -0.15315256 -0.23475707 -0.31272346
-0.60068566 -0.12143921 -0.082837395 0.0997004 0.059559945 -0.27914867 0.08528435 0.2954249
-0.07091499 0.26941222 -0.007357071 -0.09859326 0.10545738 -0.3535241 0.068380736 0.103594236
0.0045406474 0.14757313 -0.020031266 -0.42116413 0.034554787 0.11003504 0.048512902 -0.11897734
0.15738286 0.029679779 -0.2685571 0.074839495 0.030752445 -0.2025024 0.048958085 0.14317462
0.18898523 0.1041717 -0.13335536 0.15397225 0.07120305 0.042052977 0.038079035 -0.43852076
-0.24476656 0.046593666 -0.005384481 -0.16807021 -0.018953083 0.16806592 -0.2312569 -0.1746391
-0.27917677 0.070674576 0.053286903 -0.066589445 -0.14726546 -0.28307062 -0.35936415 -0.034952834
0.16449939 0.16617686 0.059325 -0.053551633 0.16873746 0.025637867 -0.14635971 -0.16349237
0.080642365 -0.017348802 -0.21876277 0.11396315 0.09779251 -0.49577424 0.010421987 -0.06238384
-0.023701003 0.030897485 0.0644902 -0.11711672 0.15081494 0.116496906 0.079319604 -0.41425395
0.018148523 -0.31427476 -0.12834905 -0.06726092 -0.23056692 0.05756345 0.05437974 0.10799785
0.032178428 -0.041440878 -0.15741158 0.17005701 -0.0914598 -0.19678763 0.1006134 -0.30811903
-0.6731825 0.11461722 -0.0526708 -0.29938376 -0.18081811 -0.19129446 -0.33900866 0.06227814
0.12597233 0.06766501 -0.114171416 -0.20459585 0.050681636 0.060886364 0.02209668 -0.2011887
0.08399555 -0.19165543 -0.022847548 -0.07334592 -0.05330135 -0.007359381 -0.29240972 0.19083849
-0.11562941 -0.2582476 0.10964972 -0.3273896 -0.31500557 -0.42937398 -0.09998688 -0.32703808
-0.022558793 -0.1083775 -0.4242683 -0.2356887 0.0035395734 -0.4315712 -0.1571215 -0.26921612
0.07901677 -0.19648139 0.040541455 0.13162513 -0.23952736 -0.11103954 0.046698257 0.078537606
-0.23163864 0.06559728 -0.1449382 0.08746998 0.16460206 0.12376134 0.066675834 0.056734014
0.12959313 0.12357103 0.052386295 0.13667136 -0.22249885 -0.012016378 0.12513359 0.0058574397
0.10876421 -0.05666297 -0.27598673 -0.34871414 -0.021352274 -0.061558563 0.079421446 0.1285267
-0.058328506 -0.308854 -0.026004408 -0.09008101 -0.023875501 -0.23989849 0.16912217 0.1034015
0.3630397 -0.15311764 0.15079913 -0.17553546 -0.32323742 0.06873145 -0.31142306 -0.030572873
0.10907041 0.047192454 0.15543842 0.062186785 0.13987067 -0.08618051 -0.058063164 -0.0660363
-0.26742518 -0.09072417 0.16418973 0.10683678 -0.09163045 0.1773687 -0.08069422 0.098362096

dense_layers.2.bias f4 [10]
00000000: 24db abbd c465 85bc 0c9b d1bb bbd5 a6bd
00000010: d97c 803d 50a3 fa3d ecab 3ebd d872 323d
00000020: b4b6 8fbd 8d04 823c
-0.08391407 -0.016283877 -0.006396657 -0.081462346 0.06273813 0.12238181 -0.046550676 0.043566555
-0.0701727 0.01587131
